plato/models/pretrained/lenet5_13_32677.pth (torch, 250323 bytes, 10 tensors)

conv1.weight f4 [6, 1, 5, 5]
-0.17866448 0.09777263 0.23059787 0.20774704 0.09967321 -0.11752831 0.2025161 0.32329804
0.062324297 0.101976514 -0.18799578 -0.081932634 0.09923385 0.27441147 0.08806858 -0.0595156
0.07681778 0.20895779 0.071527585 0.044970743 -0.16469347 0.16294797 0.2754034 -0.14527619
-0.11114428 0.034090172 0.050064523 0.09508826 -0.0883626 -0.3310264 -0.0058969283 0.116609715
-0.11939022 -0.27340764 -0.25059584 0.22730301 0.3726907 0.3703445 -0.16766462 -0.20518947
0.25346503 0.23319846 0.43907553 0.16873297 -0.11647727 -0.23342265 -0.06588939 0.17579812
0.20263559 0.12907107 0.05814404 0.2254747 -0.038073063 -0.05096671 0.31550506 -0.021759234
0.09884978 -0.03140335 0.0916023 0.23004727 0.16018167 0.13021453 0.14704818 0.12530802
-0.10382525 -0.27214518 -0.054934524 -0.15400235 -0.16948847 0.10803102 -0.09929707 -0.2222107
-0.17016916 -0.019012785 -0.07119596 -0.009048217 0.26812407 0.31789735 0.024479564 -0.04659861
0.024636652 0.22039013 0.428418 0.33257362 -0.13291754 0.051588446 -0.07207179 0.19824693
0.44128224 0.25702733 -0.03030446 0.07851917 0.15348057 0.0029331674 0.010470902 -0.3232033
-0.19852507 0.123956956 -0.0042265765 0.26964843 -0.23004319 -0.085241504 -0.2643638 0.052446883
0.069546275 -0.28193414 -0.264525 -0.012463399 0.2798871 0.17103082 -0.28532264 0.086287834
0.008533761 0.25530884 0.01949899 0.061614454 0.054917485 0.22870043 0.4734228 0.23543093
0.3427667 0.23737597 0.13470963 0.25713181 0.18054259 -0.2797911 -0.1273217 0.23312071
0.42305782 0.26947635 -0.04359206 0.3502597 0.11407601 0.3906169 0.1331915 0.30969045
0.27887368 -0.030110812 -0.034995884 -0.15064731 -0.004079121 -0.22361247 0.10751082 -0.10770373
0.047034793 -0.1765541 -0.14431109 -0.1404382 0.0020004818 -0.05935039
00000000: d2f3 36be 043d c83d d921 6c3e a4bb 543e
00000010: 7821 cc3d afb2 f0bd 6160 4f3e 5287 a53e
00000020: c347 7f3d 10d9 d03d f781 40be 4ccc a7bd
00000030: 1e3b cb3d a97f 8c3e 4d5d b43d a1c6 73bd
00000040: a452 9d3d 08f9 553e 0e7d 923d 3e33 383d
00000050: 68a5 28be d5db 263e ad01 8d3e 48c3 14be
00000060: 9d9f e3bd 23a2 0b3d 7510 4d3d a2bd c23d
00000070: 73f7 b4bd 4b7c a9be 053b c1bb 13d1 ee3d
00000080: dc82 f4bd 16fc 8bbe 194e 80be 1fc2 683e
00000090: 51d1 be3e cb9d bd3e 46b0 2bbe 301d 52be
000000a0: 2bc6 813e 94cb 6e3e 82ce e03e 56c8 2c3e
000000b0: a38b eebd 5906 6fbe 04f1 86bd 6c04 343e
000000c0: b47f 4f3e 352b 043e 7228 6e3d d7e2 663e
000000d0: 80f2 1bbd 78c2 50bd e189 a13e 6c40 b2bc
000000e0: c171 ca3d cda0 00bd fd99 bb3d 8391 6b3e
000000f0: aa06 243e f556 053e cc93 163e bf50 003e
00000100: 55a2 d4bd 9d56 8bbe 0603 61bd cbb2 1dbe
00000110: 638e 2dbe 5e3f dd3d 435c cbbd 348b 63be
00000120: d340 2ebe b3c0 9bbc 30cf 91bd f93e 14bc
00000130: 8f47 893e 71c3 a23e 5e89 c83c 2fde 3ebd
00000140: ced2 c93c f3ad 613e 9b59 db3e 1747 aa3e
00000150: 891b 08be 684e 533d 609a 93bd 3e01 4b3e
00000160: bfef e13e 1699 833e 0f41 f8bc a9ce a03d
00000170: 032a 1d3e 623a 403b 258e 2b3c e77a a5be
00000180: 284a 4bbe 25dd fd3d 187f 8abb 5c0f 8a3e
00000190: 7190 6bbe 1993 aebd b15a 87be 8bd2 563d
000001a0: 476e 8e3d ac59 90be d26f 87be 4933 4cbc
000001b0: 5d4d 8f3e b422 2f3e cf15 92be adb7 b03d
000001c0: 30d1 0b3c d7b7 823e 59bc 9f3c 705f 7c3d
000001d0: 28f1 603d 7230 6a3e 7964 f23e ce14 713e
000001e0: 1e7f af3e b012 733e 52f1 093e c8a6 833e
000001f0: 28e0 383e c740 8fbe 9f60 02be 32b7 6e3e
00000200: 099b d83e cef8 893e 978d 32bd 3d55 b33e
00000210: afa0 e93d f0fe c73e 5a63 083e bf8f 9e3e
00000220: 88c8 8e3e f3aa f6bc d857 0fbd 4a43 1abe
00000230: 26aa 85bb abfa 64be a22e dc3d c693 dcbd
00000240: 8ea7 403d 99ca 34be 49c6 13be 08cf 0fbe
00000250: 841a 033b 6519 73bd

conv1.bias f4 [6]
-0.14070152 -0.032522894 0.14397871 0.0354282 0.20267431 0.10228598
00000000: 0f14 10be ba36 05bd 286f 133e 291d 113d
00000010: db89 4f3e 507b d13d

conv2.weight f4 [16, 6, 5, 5]
0.02548907 -0.111287214 0.005476149 -0.008543418 -0.058674876 -0.0065728654 0.030626232 0.11882043
0.08584741 0.022949584 -0.04442195 0.036083918 0.06589764 -0.0060464884 -0.12341111 -0.05216812
-0.028034206 0.014884485 -0.07686415 -0.10752015 -0.033956304 -0.02014519 -0.03960314 -0.011439865
-0.076925434 0.009731053 0.05500955 -0.026551032 0.061256517 0.079214156 -0.029601574 -0.04392999
-0.09577204 0.07345267 0.050401233 -0.007359271 -0.08275254 0.017811542 0.05106004 0.025105465
-0.00081320916 -0.01394313 0.009086361 -0.027035998 0.022306632 -0.03257728 -0.006226842 0.0005556515
-0.02682307 -0.0069983522 -0.0052254177 -0.020093752 -0.062188074 -0.06470626 -0.0044425833 0.043418314
-0.07585295 0.05669043 0.08057741 -0.006848358 -0.055857938 0.049049605 -0.074996464 0.06440894
-0.06390125 0.00790739 -0.061608873 0.01938299 -0.029652176 0.020484785 -0.059946746 -0.050330732
-0.090141594 -0.06538784 0.04901518 -0.039598767 0.030669019 -0.047300592 0.048016004 0.035941295
0.033126898 -0.029888561 0.013443461 0.044221565 -0.03701601 0.0955281 0.059707128 0.013042967
0.057523847 -0.10717506 -0.017766688 0.08184763 0.016968044 -0.15658034 -0.06525664 -0.037702084
-0.081362285 -0.05776172 -0.13613006 0.015529341 -0.012758896 -0.07305679 0.033351485 0.040759243
0.09267095 0.04965089 0.040476557 0.1452607 0.0034090525 -0.04173848 -0.005334384 0.05299646
-0.020865126 -0.16844726 -0.14755844 -0.040186282 -0.0039447453 -0.06920455 -0.13187967 -0.050925296
0.002782087 -0.09887311 0.051177897 0.09565932 0.038473833 0.07416067 0.0033454213 -0.02124842
-0.035370868 -0.019085018 -0.062122285 0.012088564 0.013576149 0.041479778 0.081788845 -0.008833428
0.11564564 0.11848966 0.034621473 -0.08025771 0.043902803 0.09066092 -0.01876791 0.008216243
-0.09002546 -0.041594893 0.017264381 -0.11839914 -0.1063689 -0.077285655 0.0022586596 0.1182384
0.04306502 0.041795246 -0.083870895 -0.028885119 0.10294617 -0.07311608 0.032370746 -0.08022048
-0.043797318 0.024274927 -0.06293402 -0.05961604 0.011498612 0.073725365 -0.04980743 -0.012948034
0.010590308 0.010009933 0.08902127 0.076660685 -0.0074095177 0.08775382 0.086901985 0.002987724
0.06792247 -0.071943074 -0.068449825 -0.032862756 -0.112710856 0.040245518 -0.003351235 -0.06889693
-0.028473325 -0.089538775 0.09884572 -0.0337531 -0.03732575 0.075525776 0.011695472 0.07753921
-0.019615628 -0.0842601 -0.06546965 0.040278737 -0.01829187 -0.06472711 -0.050953604 0.024655113
-0.018678237 0.06271498 -0.08661441 -0.040054664 0.035351865 0.04462839 -0.002583356 -0.051481783
0.0609995 0.03993916 -0.038062274 0.009872067 0.052194603 -0.075243436 -0.015399439 -0.0020927114
-0.086919345 0.020071274 0.025751578 -0.049024407 -0.09429105 0.031558916 -0.0017409137 0.00035135585
-0.045722935 -0.0027875723 0.06662973 0.011767546 -0.03690291 -0.03953295 -0.028546942 0.0564196
-0.03233205 -0.047067776 0.0045907055 -0.005304925 -0.072968915 -0.15345794 -0.07163264 -0.06483611
0.014135347 0.027226306 -0.12117876 -0.01177823 0.09275425 0.087467015 -0.022352774 0.017741429
-0.05609865 -0.051815607 -0.050183315 0.036090616 -0.041272964 -0.10121648 0.019536518 0.09393574
00000000: 74ce d03c 8dea e3bd 4471 b33b b1f9 0bbc
00000010: 1155 70bd 3161 d7bb dde3 fa3c 2058 f33d
00000020: c4d0 af3d c400 bc3c caf3 35bd bbcc 133d
00000030: 58f5 863d 9f21 c6bb f7be fcbd 3dae 55bd
00000040: fea7 e5bc 0ede 733c f46a 9dbd 8633 dcbd
00000050: c415 0bbd 8707 a5bc e736 22bd 466e 3bbc
00000060: 158b 9dbd ff6e 1f3c b251 613d 8d81 d9bc
00000070: 1de8 7a3d 083b a23d 007f f2bc efef 33bd
00000080: 2224 c4bd 5a6e 963d 8671 4e3d 0a26 f1bb
00000090: 2a7a a9bd 83e9 913c 5524 513d faa9 cd3c
000000a0: 8b2d 55ba ba71 64bc f6de 143c 997a ddbc
000000b0: 66bc b63c c16f 05bd 890a ccbb 24a9 113a
000000c0: 0ebc dbbc 6f52 e5bb fb39 abbb a79b a4bc
000000d0: ecb8 7ebd b784 84bd 1793 91bb 67d7 313d
000000e0: cb58 9bbd 3934 683d c505 a53d 3168 e0bb
000000f0: 4bcb 64bd 3de8 483d bf97 99bd d6e8 833d
00000100: a9de 82bd ff8d 013c 9659 7cbd 14c9 9e3c
00000110: 1fe9 f2bc b5cf a73c b88a 75bd 9927 4ebd
00000120: 289c b8bd 0fea 85bd 24c4 483d 5132 22bd
00000130: 983d fb3c 44be 41bd 6eac 443d 2e37 133d
00000140: 12b0 073d dbd8 f4bc f641 5c3c ac21 353d
00000150: 1a9e 17bd 3da4 c33d 768f 743d 2bb2 553c
00000160: 209e 6b3d 997e dbbd 728b 91bc bb9f a73d
00000170: 9100 8b3c 9956 20be 46a5 85bd 806d 1abd
00000180: 45a1 a6bd 8e97 6cbd ae65 0bbe c76e 7e3c
00000190: b00a 51bc cc9e 95bd 919b 083d 2af3 263d
000001a0: 44ca bd3d bb5e 4b3d bfca 253d 39bf 143e
000001b0: 696a 5f3b f8f5 2abd 0ecc aebb d112 593d
000001c0: 57ed aabc 707d 2cbe 8f19 17be 5f9a 24bd
000001d0: ec42 81bb 1dbb 8dbd 770b 07be 0b97 50bd
000001e0: ad53 363b fc7d cabd ea9f 513d 09e9 c33d
000001f0: bd96 1d3d 8de1 973d db3e 5b3b 2b11 aebc
00000200: 0be1 10bd 2f58 9cbc f073 7ebd 1d0f 463c
00000210: 7f6e 5e3c b3e6 293d e980 a73d 15ba 10bc
00000220: 9fd7 ec3d b5aa f23d 3fcf 0d3d 275e a4bd
00000230: 6dd3 333d 6fac b93d 29bf 99bc 6c9d 063c
00000240: 455f b8bd 685f 2abd 086e 8d3c 407b f2bd
00000250: f0d7 d9bd f147 9ebd 0506 143b f926 f23d
00000260: f264 303d 7e31 2b3d 81c4 abbd 7ca0 ecbc
00000270: 71d5 d23d e2bd 95bd 3097 043d a34a a4bd
00000280: d164 33bd 36dc c63c 8de3 80bd f32f 74bd
00000290: ad64 3c3c 53fd 963d e002 4cbd fe23 54bc
000002a0: f982 2d3c b400 243c c950 b63d 4700 9d3d
000002b0: 8acb f2bb 46b8 b33d abf9 b13d b1cd 433b
000002c0: f01a 8b3d e456 93bd 6c2f 8cbd 199b 06bd
000002d0: f3d4 e6bd 7cd8 243d 65a0 5bbb d519 8dbd
000002e0: e440 e9bc 1b60 b7bd a06f ca3d b140 0abd
000002f0: e3e2 18bd 42ad 9a3d 5d9e 3f3c e1cc 9e3d
00000300: f4b0 a0bc 8f90 acbd f414 86bd 51fb 243d
00000310: d5d8 95bc a68f 84bd bab4 50bd 85f9 c93c
00000320: 1a03 99bc b670 803d e562 b1bd 5c10 24bd
00000330: 1ecd 103d 42cc 363d 864d 29bb 90de 52bd
00000340: 9dda 793d 3f97 233d 30e7 1bbd 73be 213c
00000350: 02ca 553d 3b19 9abd ee4d 7cbc df25 09bb
00000360: c502 b2bd 836c a43c f9f4 d23c d1cd 48bd
00000370: ab1b c1bd ec43 013d 5f2f e4ba 2f36 b839
00000380: f947 3bbd b4af 36bb 2b75 883d aacc 403c
00000390: 8127 17bd 4ded 21bd 47db e9bc 3d18 673d
000003a0: 9d6e 04bd 24ca 40bd a16d 963b f0d4 adbb
000003b0: ba70 95bd 1424 1dbe 22b4 92bd cbc8 84bd
000003c0: f197 673c b409 df3c 922c f8bd 7af9 40bc
000003d0: f1f5 bd3d e821 b33d 2a1d b7bc 7956 913c
000003e0: b3c7 65bd 9a3c 54bd 058d 4dbd c1d3 133d
000003f0: d70d 29bd 964a cfbd 0c0b a03c 6261 c03d

conv2.bias f4 [16]
-0.071430005 0.05976444 -0.07394726 0.04338742 0.026004246 -0.07199567 -0.09689108 0.07091432
-0.04468464 -0.029352035 -0.07370304 -0.07877312 -0.0017751341 0.0551767 -0.050092187 0.02798773
00000000: e549 92bd 8fcb 743d a971 97bd 02b7 313d
00000010: db06 d53c 7772 93bd d56e c6bd 873b 913d
00000020: 3e07 37bd ae73 f0bc 9ff1 96bd cd53 a1bd
00000030: 9eab e8ba f700 623d 772d 4dbd 8646 e53c

conv3.weight f4 [120, 16, 5, 5]
0.021450367 -0.0068532717 0.019756082 0.032000836 0.01580993 0.022266038 0.036278535 -0.029604398
-0.047016744 0.02441556 -0.013718469 -0.031036437 -0.04179331 -0.01225305 0.05508813 0.041834358
0.019434305 -0.0483165 0.028331596 0.029233752 0.017474053 0.05171542 0.050798588 -0.006104032
0.017109644 -0.013401335 -0.00989374 0.0031673925 0.033556856 0.026089914 0.017026445 -0.020127254
0.028647482 0.020651665 0.03686139 -0.050715905 0.04826676 -0.0444984 -0.012769885 0.019768244
-0.0063703074 0.005554626 -0.030313248 0.010392877 -0.044558752 0.015874457 0.0475962 0.024909994
-0.027625227 -0.031771593 0.025106426 0.004256667 -0.009849451 0.026486317 -0.024692362 -0.024020478
-0.03442409 -0.05643793 0.017040772 -0.028462524 -0.017430495 0.03241934 0.044116654 0.010629103
0.048548874 0.046234116 0.024509817 0.058744553 0.013088827 0.00874836 0.01079406 -0.03924179
0.022053838 -0.0013013348 -0.031983532 -0.011730924 0.012906976 0.0038337698 -0.049553078 0.039359525
-0.04036002 -0.04239126 0.041852448 0.041852057 0.0023529702 -0.0038646134 -0.035158496 -0.01109815
0.04361667 -0.04817213 0.041077394 0.013741023 0.015206305 0.024823599 -0.023318555 0.032549493
0.02799733 0.011604647 -0.029388981 -0.03138996 -0.04999584 -0.031939983 -0.007530159 -0.029946065
0.052851424 -0.06510607 -0.030465558 -0.0050504273 -0.029094277 -0.05945474 0.055197597 0.024164269
0.035284076 0.013871325 0.018099051 -0.025668811 -0.035969354 0.025015857 -0.02529589 -0.040317878
-0.0009230255 -0.030366125 -0.031379994 0.0040068617 0.04841558 -0.004242948 -0.014223522 -0.05661499
-0.053052466 -0.010028776 0.0015329698 0.020641977 0.036540926 -0.0023890669 -0.057819687 0.005928811
0.055905394 0.00955728 0.05245669 -0.021895548 -0.041611817 -0.025671354 -0.07305935 -0.007192328
0.057995833 -0.038001478 0.031276185 -0.049422286 0.0450752 0.0029246819 0.00040190775 -0.018414075
-0.0124560585 0.035300918 0.0036114054 -0.012275962 -0.07098826 -0.010479309 0.029309934 0.022500856
-0.035058755 -0.027920077 0.00035876533 -0.03446317 0.019740274 0.025469111 0.006248456 0.013273347
-0.029142339 0.01071595 -0.0036468343 -0.02578759 -0.012848587 -0.03683396 -0.04825206 0.04571166
-0.020372853 -0.036046706 -0.030952845 0.028474873 0.04301469 -0.022570334 -0.0030687067 -0.020578964
-0.041291457 0.048159353 0.032554466 0.046460338 -0.018996064 -0.006180414 -0.03140755 -0.008497192
-0.0051576607 0.016282123 -0.024840908 0.028898768 -0.041036356 -0.026538111 -0.015384214 -0.03038018
-0.040196564 0.023804147 -0.0090725925 -0.00017719995 -0.03480598 0.05735784 -0.027078131 -0.0038013016
-0.045661695 -0.041435044 0.070286125 0.0012655953 0.0451926 0.010668747 -0.015880022 0.012328896
0.0025776234 0.029137004 0.009823937 0.042853955 -0.006614139 -0.03606238 0.008048009 -0.0014562119
-0.016479433 0.058014765 -0.062409792 -0.029698359 0.02653034 0.028969945 -0.0029980522 -0.025256054
-0.10536346 -0.055643957 -0.0015940613 0.004791609 0.07711099 0.09740602 -0.009913263 0.004567617
0.038098305 0.07486564 0.04603832 0.043564554 -0.02850523 0.037956946 0.034146216 0.02375817
-0.038281925 -0.06558132 -0.001723597 -0.025720809 0.059825316 0.043252163 -0.023511998 -0.006912365
00000000: aeb8 af3c 6991 e0bb 82d7 a13c 4f13 033d
00000010: d483 813c 4467 b63c cd98 143d ec84 f2bc
00000020: a194 40bd 2403 c83c 6ec3 60bc 2040 febc
00000030: 762f 2bbd 04c1 48bc 17a4 613d 815a 2b3d
00000040: b134 9f3c 86e7 45bd aa17 e83c 9f7b ef3c
00000050: bf25 8f3c 8cd3 533d 2e12 503d 5504 c8bb
00000060: 8629 8c3c 4691 5bbc 5a19 22bc 0794 4f3b
00000070: ea72 093d 84ba d53c 0b7b 8b3c e9e1 a4bc
00000080: 20ae ea3c ae2d a93c f8fb 163d 7bbb 4fbd
00000090: 5eb3 453d f443 36bd c838 51bc 03f1 a13c
000000a0: 03be d0bb 9503 b63b 7d53 f8bc e346 2a3c
000000b0: 3d83 36bd 260b 823c 3cf4 423d 0b10 cc3c
000000c0: 4d4e e2bc ee22 02bd feab cd3c 837b 8b3b
000000d0: 975f 21bc d5f9 d83c a347 cabc 98c6 c4bc
000000e0: 4600 0dbd 752b 67bd 1799 8b3c 3d2a e9bc
000000f0: 66ca 8ebc 24ca 043d aab3 343d b025 2e3c
00000100: 2fdb 463d fc5f 3d3d d0c8 c83c 219e 703d
00000110: 8572 563c 4855 0f3c 92d9 303c 00bc 20bd
00000120: 40aa b43c 8d91 aaba 2a01 03bd 1033 40bc
00000130: c877 533c fc3f 7b3b 2bf8 4abd 7437 213d
00000140: 8c50 25bd 75a2 2dbd 796d 2b3d 106d 2b3d
00000150: 4a34 1a3b 7445 7dbb 5b02 10bd 04d5 35bc
00000160: 65a7 323d 2450 45bd c540 283d 0722 613c
00000170: de23 793c dc5a cb3c 8e06 bfbc 9e52 053d
00000180: a85a e53c 6b21 3e3c 29c1 f0bc c292 00bd
00000190: 70c8 4cbd 80d3 02bd 8dbf f6bb 7351 f5bc
000001a0: bc7a 583d 5556 85bd e892 f9bc 0e7e a5bb
000001b0: 1f57 eebc d086 73bd e016 623d 25f4 c53c
000001c0: 0986 103d 8e44 633c 7644 943c 6647 d2bc
000001d0: 9a54 13bd 0eee cc3c 5439 cfbc 5c24 25bd
000001e0: 31f7 71ba 61c2 f8bc 4f88 00bd fe4b 833b
000001f0: 6a4f 463d 6d08 8bbb c609 69bc 1fe5 67bd
00000200: 8b4d 59bd bc4f 24bc eeed c83a 5d19 a93c
00000210: f0ab 153d e491 1cbb 56d4 6cbd 7946 c23b
00000220: 0efd 643d 2396 1c3c d4dc 563d 4b5e b3bc
00000230: 2771 2abd bb4c d2bc 24a0 95bd 9fad ebbb
00000240: 0a8d 6d3d 70a7 1bbd 751b 003d 066f 4abd
00000250: c6a0 383d 05ac 3f3b 25b7 d239 1dd9 96bc
00000260: 7f14 4cbc b297 103d 54ad 6c3b 1e21 49bc
00000270: 4b62 91bd 68b1 2bbc 631b f03c b753 b83c
00000280: c599 0fbd a5b8 e4bc ab18 bc39 4129 0dbd
00000290: 5bb6 a13c 99a4 d03c d9bf cc3b 7478 593c
000002a0: eabb eebc f491 2f3c baff 6ebb 7f40 d3bc
000002b0: e182 52bc 35df 16bd f4a3 45bd 263c 3b3d
000002c0: f8e4 a6bc b6a5 13bd d290 fdbc 2344 e93c
000002d0: 2c30 303d 6ce5 b8bc 5b1c 49bb 3795 a8bc
000002e0: 3b21 29bd be42 453d d557 053d 324d 3e3d
000002f0: a29d 9bbc 1285 cabb 34a5 00bd ce37 0bbc
00000300: 9801 a9bb 1662 853c 297f cbbc 1cbd ec3c
00000310: bd15 28bd 7466 d9bc 120e 7cbc dbdf f8bc
00000320: 27a5 24bd ea00 c33c 36a5 14bc c0ce 39b9
00000330: b790 0ebd 0ef0 6a3d f5d2 ddbc 421f 79bb
00000340: c207 3bbd cbb7 29bd 2cf2 8f3d 55e2 a53a
00000350: e01b 393d f8cb 2e3c d216 82bc 23ff 493c
00000360: 58ed 283b bab0 ee3c 94f4 203c a187 2f3d
00000370: 6bbb d8bb 25b6 13bd ccdb 033c 5dde beba
00000380: e0ff 86bc e4a0 6d3d 69a1 7fbd f949 f3bc
00000390: 2856 d93c 6152 ed3c f87a 44bb c9e5 cebc
000003a0: ccc8 d7bd ebea 63bd d2ef d0ba ee02 9d3b
000003b0: 5eec 9d3d cf7c c73d 3d6b 22bc f3ab 953b
000003c0: f80c 1c3d 2853 993d ad92 3c3d bf70 323d
000003d0: cd83 e9bc be78 1b3d e7dc 0b3d 7ea0 c23c
000003e0: 82cd 1cbd 804f 86bd 51ea e1ba 72b4 d2bc
000003f0: 640b 753d 2e29 313d 3c9c c0bc 1f81 e2bb

conv3.bias f4 [120]
-0.04407146 0.012905227 -0.023284072 0.036885858 -0.03454386 -0.0095655555 0.027008537 0.03534808
-0.044672817 0.003240586 -0.025324658 0.0059610032 -0.0030864864 -0.020871181 -0.04524358 -0.038848616
-0.041173723 -0.021128222 0.04488619 -0.024778794 -0.033306964 0.036952987 0.0035864469 0.041061077
-0.004630786 -0.039996356 0.044177525 -0.029372288 0.025498962 -0.036367353 -0.0036639625 0.00803713
-0.031767715 -0.002699195 0.025200104 0.019175146 0.0022283848 0.0073872968 0.00409052 0.04247011
0.053895697 0.029443769 0.041277166 0.013564234 -0.005980907 -0.012955487 -0.023641182 0.0018119097
0.03574312 -0.039458405 -0.02961348 -0.015047141 0.027186723 -0.04069909 0.03117157 0.03187667
-0.028836546 -0.02264898 -0.049747866 -0.004681753 -0.0035220752 -0.022522248 -0.038620226 -0.007879909
-0.013019428 0.028171197 -0.0039149844 -0.005752807 -0.022168716 0.037310947 0.002311121 0.04257206
0.032176144 -0.004591453 -0.011067201 0.0609273 0.046805482 -0.013160002 -0.01593749 0.022905026
-0.032652788 0.022900559 0.028347744 -0.0110849505 -0.046232123 0.017994564 0.031465497 0.029404115
-0.013048481 -0.008019951 -0.0124264425 -0.030109582 0.043611214 0.026002025 0.0019228299 0.0295524
-0.043744743 0.007375426 0.051342327 0.024505803 0.034136172 0.012654123 -0.01475685 -0.019607842
-0.0076783774 0.041351642 -0.012624764 0.034729302 0.003788126 0.019788222 -0.044754002 -0.051184315
-0.026821915 -0.02288558 -0.007975101 -0.0077102887 -0.027286926 0.015203238 -0.043777525 0.03670061
00000000: 4684 34bd 7270 533c 3dbe bebc a015 173d
00000010: dd7d 0dbd d9b8 1cbc 0241 dd3c 26c9 103d
00000020: d8fa 36bd 0360 543b a875 cfbc 8554 c33b
00000030: a646 4abb 0afa aabc 5551 39bd ba1f 1fbd
00000040: c7a5 28bd 1815 adbc 95da 373d e6fc cabc
00000050: e26c 08bd 045c 173d 980a 6b3b a92f 283d
00000060: d9bd 97bb 38d3 23bd 7ef3 343d 279e f0bc
00000070: 33e3 d03c eff5 14bd 171f 70bb 2bae 033c
00000080: dd1e 02bd fae4 30bb 7370 ce3c 3215 9d3c
00000090: 180a 123b 2311 f23b c509 863b 23f5 2d3d
000000a0: bcc1 5c3d 0f34 f13c 3f12 293d 853c 5e3c
000000b0: 7cfb c3bb 4043 54bc 27ab c1bc 9a7d ed3a
000000c0: 6167 123d 239f 21bd f897 f2bc 4988 76bc
000000d0: b1b6 de3c 17b4 26bd 855b ff3c 1c91 023d
000000e0: 9f3a ecbc 5b8a b9bc 6bc4 4bbd 6469 99bb
000000f0: 9ed2 66bb 9480 b8bc 3e30 1ebd bc1a 01bc
00000100: 704f 55bc 48c7 e63c 4549 80bb 0b82 bcbb
00000110: 2b9b b5bc 5dd3 183d 2d76 173b 0a60 2e3d
00000120: 22cb 033d e673 96bb 3553 35bc e88e 793d
00000130: 1bb7 3f3d 0d9d 57bc 578f 82bc 52a3 bb3c
00000140: eebe 05bd f499 bb3c 8739 e83c a79d 35bc
00000150: e55d 3dbd 5669 933c f7e1 003d e6e0 f03c
00000160: 4cc9 55bc 1d66 03bc 4798 4bbc 5fa8 f6bc
00000170: aca1 323d 3302 d53c 7707 fc3a e017 f23c
00000180: b02d 33bd 8fad f13b 554c 523d 65c0 c83c
00000190: 5fd2 0b3d 3d53 4f3c b7c6 71bc a0a0 a0bc
000001a0: e69a fbbb 5760 293d 19d8 4ebc 5040 0e3d
000001b0: 3542 783b e91a a23c f94f 37bd a5a6 51bd
000001c0: a2b9 dbbc 8a7a bbbc ffa9 02bc 97a6 fcbb
000001d0: d588 dfbc 0117 793c 1050 33bd 6153 163d

fc4.weight f4 [84, 120]
0.043537516 0.07055507 -0.008416802 -0.053076744 0.047676507 -0.057398673 -0.013138896 -0.009885479
0.09616854 0.09225956 0.0114094075 0.034834746 -0.027035234 0.023977088 0.05655932 -0.09454197
-0.09208213 0.049467605 0.07228829 0.07905171 0.009133145 0.08434512 0.04431839 0.029600643
0.06301717 -0.008045742 -0.07837209 -0.14407235 0.013695552 -0.030256988 -0.052680817 -0.060030676
-0.033133637 0.00025624005 -0.04754705 0.054378062 0.017147038 -0.04158705 -0.0010572022 0.043902647
-0.034070373 -0.038926184 0.011077464 0.059479173 0.10045133 0.02559778 0.018587584 0.07537857
0.011322858 0.06042376 0.0070659537 0.077271715 -0.05169765 8.662668e-05 0.053162206 0.023250375
0.029533712 -0.054157656 -0.05852181 0.096210636 -0.027412854 -0.010543641 0.02461618 -0.016897794
0.08609696 -0.018386085 -0.04269944 -0.0450265 -0.008178074 -0.03820771 -0.1314401 -0.0061854683
0.04176585 0.04358968 -0.073337264 0.13590512 -0.016074859 0.0071909423 0.08485398 -0.061818358
0.008024752 -0.062166195 0.033050552 0.09418156 -0.08555682 0.08335607 0.062165625 -0.03754914
0.106180035 0.058508907 -0.0032275661 0.0050962633 0.13647456 -0.02598591 -0.0990628 0.07593035
-0.015245655 0.015550337 0.12909445 -0.14205326 0.04467887 0.10432626 -0.04314916 -0.017722974
-0.04212339 -0.027889252 -0.029986007 -0.10439597 0.06658955 -0.084247336 0.055962466 0.0704624
0.012294916 0.010598372 0.029603796 -0.08395593 0.064491645 0.04441629 0.08124419 -0.02144157
0.06966915 0.08233661 -0.049250048 0.038952168 0.0072225537 -0.050014704 -0.048317295 0.09024752
0.007859278 -0.048089642 0.016253913 0.056801002 0.008247332 -0.123034656 -0.009600347 -0.111440375
0.058224194 -0.044196617 0.04245211 -0.06071399 0.038523823 0.05678858 -0.046270415 -0.021082921
-0.010807693 -0.07323963 -0.06918597 0.10792389 -0.049483757 0.019021753 0.0019901989 0.040528096
0.0045770328 0.060921054 0.013548795 -0.07342896 0.031682033 -0.07768659 0.035608605 0.031785715
0.12968409 -0.1204469 0.065198176 0.027083833 0.03116895 0.057209246 -0.060063932 -0.008313496
0.04878756 0.037425585 0.05952522 0.017731601 0.004446869 -0.015889715 -0.009068857 -0.13324812
0.031705055 0.06785314 0.04138068 0.077749744 -0.010428663 0.096201174 0.06824143 -0.021213386
-0.046616983 0.09383473 0.036484536 -0.020417795 0.08175254 0.09923317 0.10005378 -0.052759398
-0.08856608 0.036069777 -0.071401894 0.05510184 0.06295661 0.024322689 -0.019023918 -0.023848642
-0.05333905 0.010427873 -0.014621948 0.05946437 0.06073824 -0.02496347 0.0037732983 0.013163211
0.08080571 0.0656019 -0.03314987 -0.10518663 -0.06965458 -0.09028869 0.017531198 -0.06638363
0.13585529 0.13528359 0.11703067 -0.11087907 0.07565253 -0.0444747 0.06228374 0.040841002
0.064913824 -0.040592708 0.015696501 0.11676962 -0.056181394 -0.0763786 -0.08367894 0.05489766
0.002167308 -0.021979887 -0.07907432 -0.06412092 0.026525242 -0.004624961 0.0061791576 0.05025337
-0.045699287 -0.0016976735 0.014974565 -0.06518014 -0.08520025 -0.11697229 -0.010413796 -0.015470878
0.08908373 0.082178116 -0.03044646 -0.043785516 -0.04942386 -0.05742634 0.009496301 0.024586966
00000000: 6554 323d 2d7f 903d a0e6 09bc 0067 59bd
00000010: 7148 433d df1a 6bbd 8644 57bc b4f6 21bc
00000020: 03f4 c43d 95f2 bc3d 86ee 3a3c e1ae 0e3d
00000030: ff78 ddbc 996b c43c bfaa 673d 389f c1bd
00000040: 8e95 bcbd 8b9e 4a3d e20b 943d dde5 a13d
00000050: 30a3 153c 22bd ac3d 3387 353d 0c7d f23c
00000060: 250f 813d 4ad2 03bc 8c81 a0bd b487 13be
00000070: 4f63 603c 81dd f7bc d7c7 57bd bae2 75bd
00000080: 23b7 07bd f557 8639 b2c0 42bd 88bb 5e3d
00000090: f277 8c3c 2f57 2abd d291 8aba 43d3 333d
000000a0: 608d 0bbd 1071 1fbd 407e 353c 6fa0 733d
000000b0: 6db9 cd3d 6fb2 d13c fd44 983c 1460 9a3d
000000c0: 8283 393c e87e 773d 8489 e73b a240 9e3d
000000d0: eac0 53bd 58ab b538 9dc0 593d 9277 be3c
000000e0: aff0 f13c 6bd4 5dbd 91b4 6fbd 150a c53d
000000f0: ec90 e0bc 3cbf 2cbc dfa7 c93c 3e6d 8abc
00000100: 9a53 b03d 6a9e 96bc 9ce5 2ebd b56d 38bd
00000110: 54fd 05bc b07f 1cbd 3c98 06be 78af cabb
00000120: ab12 2b3d 188b 323d d931 96bd b62a 0b3e
00000130: 6caf 83bc ffa1 eb3b ecc7 ad3d 3f35 7dbd
00000140: 407a 033c fba1 7ebd 0460 073d 43e2 c03d
00000150: 6a38 afbd 96b6 aa3d 62a1 7e3d 21cd 19bd
00000160: eb74 d93d 09a7 6f3d 9385 53bb 8efe a63b
00000170: fdbf 0b3e 67e0 d4bc 70e1 cabd 5f81 9b3d
00000180: e9c8 79bc d7c6 7e3c 5631 043e 6976 11be
00000190: 3101 373d 02a9 d53d 2cbd 30bd c52f 91bc
000001a0: 9389 2cbd 0078 e4bc 37a5 f5bc 8ecd d5bd
000001b0: 1a60 883d de89 acbd e638 653d 974e 903d
000001c0: 9e70 493c cba4 2d3c a983 f23c 16f1 abbd
000001d0: 3214 843d dbed 353d 5b63 a63d 3ba6 afbc
000001e0: b3ae 8e3d 19a0 a83d 6bba 49bd 4f8c 1f3d
000001f0: 2cab ec3b 38dc 4cbd 5be8 45bd b1d3 b83d
00000200: 33c4 003c a5f9 44bd ed26 853c 2ba8 683d
00000210: d11f 073c 98f9 fbbd c64a 1dbc da3a e4bd
00000220: 7e7c 6e3d 8307 35bd 44e2 2d3d 3caf 78bd
00000230: 28cb 1d3d 249b 683d 0c86 3dbd 17b6 acbc
00000240: c012 31bc a9fe 95bd 60b1 8dbd 3307 dd3d
00000250: 7baf 4abd 82d3 9b3c ff6d 023b ca00 263d
00000260: effa 953b 5b88 793d c4fb 5d3c ec61 96bd
00000270: 05c5 013d 261a 9fbd 54da 113d bd31 023d
00000280: e8cb 043e ddac f6bd 9f86 853d eade dd3c
00000290: 0756 ff3c 3e54 6a3d 9905 76bd 5435 08bc
000002a0: 77d5 473d 924b 193d b8d0 733d dd41 913c
000002b0: 0ab7 913b 262b 82bc 8b95 14bc 3272 08be
000002c0: 29dd 013d 96f6 8a3d ca7e 293d 423b 9f3d
000002d0: fcdc 2abc 1f05 c53d 2ac2 8b3d b2c7 adbc
000002e0: 73f1 3ebd 6c2c c03d cf70 153d 3843 a7bc
000002f0: e06d a73d c33a cb3d ffe8 cc3d 3d1a 58bd
00000300: 2262 b5bd e7bd 133d 283b 92bd 78b2 613d
00000310: 65ef 803d 6040 c73c 0cd8 9bbc 3a5e c3bc
00000320: 0c7a 5abd abd9 2a3c e590 6fbc e990 733d
00000330: a9c8 783d 3180 ccbc 7149 773b 82aa 573c
00000340: 777d a53d 4a5a 863d 28c8 07bd 166c d7bd
00000350: 0fa7 8ebd 47e9 b8bd 969d 8f3c 24f4 87bd
00000360: a61d 0b3e c887 0a3e c7ad ef3d 9114 e3bd
00000370: b7ef 9a3d 1a2b 36bd 3c1d 7f3d e548 273d
00000380: 8af1 843d 8a44 26bd f395 803c e924 ef3d
00000390: 761e 66bd 626c 9cbd dd5f abbd 5edc 603d
000003a0: 6509 0e3b 2a0f b4bc b8f1 a1bd d451 83bd
000003b0: 774b d93c fc8c 97bb 887a ca3b 7ad6 4d3d
000003c0: 2d2f 3bbd 7884 deba e157 753c 2a7d 85bd
000003d0: 787d aebd 2b8f efbd a09e 2abc 9179 7dbc
000003e0: 8871 b63d 004d a83d db6a f9bc 7158 33bd
000003f0: ac70 4abd e237 6bbd 6096 1b3c 9b6a c93c

fc4.bias f4 [84]
0.049867056 -0.0022959341 -0.04252203 -0.005850031 0.04287869 0.021664953 0.012320072 -0.04615451
-0.07440213 -0.042839088 0.04981223 -0.06623897 -0.04494101 0.01018346 0.0043331315 -0.083461426
0.029589307 -0.052271962 -0.032584116 0.0558193 -0.024042787 0.094566084 -0.03284728 -0.06687079
0.01535631 -0.019189565 -0.046743102 -0.030467058 0.082838304 0.042495407 0.058183793 0.054264776
-0.09683873 -0.043976802 0.0199257 -0.0688768 0.042277608 -0.08079688 0.06838873 0.05743715
-0.0070081516 -0.067769736 0.03958699 0.046348948 0.118520305 -0.07279193 0.03518937 0.0071388115
0.09059756 -0.064934425 0.096087515 -0.06815669 -0.08683012 -0.08676691 -0.0458463 0.07448641
-0.054147784 0.026348216 -0.066920474 0.025185993 -0.012418532 0.06808938 -0.07979806 -0.026269961
-0.09100101 -0.056735445 0.040091887 -0.07695037 -0.08270016 0.059413966 0.06534832 -0.048227187
0.05355729 0.009562944 0.03524224 -0.041467953 0.0821452 0.0002483513 -0.042793304 -0.0840095
-0.024461688 -0.01597337 -0.04395641 0.10138092
00000000: 6641 4c3d 6277 16bb 952b 2ebd 9eb1 bfbb
00000010: 91a1 2f3d b37a b13c 21da 493c 830c 3dbd
00000020: 2560 98bd 0a78 2fbd e907 4c3d 4ca8 87bd
00000030: 1114 38bd 87d8 263c f1fc 8d3b d3ed aabd
00000040: 4665 f23c 201b 56bd ec76 05bd c7a2 643d
00000050: 61f5 c4bc ddab c13d df8a 06bd 8ef3 88bd
00000060: 0899 7b3c 6f33 9dbc b275 3fbd 0d96 f9bc
00000070: 21a7 a93d aa0f 2e3d 2152 6e3d be44 5e3d
00000080: 6253 c6bd 0521 34bd 393b a33c 480f 8dbd
00000090: 492b 2d3d d678 a5bd 640f 8c3d 3843 6b3d
000000a0: a3a4 e5bb dcca 8abd f825 223d 65d8 3d3d
000000b0: c6ba f23d ef13 95bd bb22 103d b1ec e93b
000000c0: 378b b93d 57fc 84bd 88c9 c43d bc95 8bbd
000000d0: fdd3 b1bd dab2 b1bd 54c9 3bbd 558c 983d
000000e0: 11ca 5dbd 37d8 d73c 9a0d 89bd db52 ce3c
000000f0: 1977 4bbc 7272 8b3d 2a6d a3bd 1a34 d7bc
00000100: bd5e babd 6d63 68bd 6437 243d 2898 9dbd
00000110: b45e a9bd 0f5c 733d 57d5 853d df89 45bd
00000120: e45e 5b3d e5ad 1c3c 2b5a 103d 4dda 29bd
00000130: be3b a83d 2635 8239 0848 2fbd 2c0d acbd
00000140: e163 c8bc 96da 82bc a30b 34bd cda0 cf3d

fc5.weight f4 [10, 84]
-0.12773988 -0.11061135 -0.13500227 0.23199013 -0.12423158 0.046282604 0.027601877 -0.091628954
-0.11981758 -0.048206676 -0.071699016 -0.07340366 0.08349841 -0.13771077 0.18484277 0.0811286
-0.08474965 -0.02196305 0.04992835 0.26944014 -0.1175081 -0.047949776 0.11389615 0.1258518
-0.05102681 -0.07155554 0.013586889 -0.15513924 -0.27155027 0.091786824 0.11575745 0.17375788
0.018054936 -0.018873882 -0.046511758 0.030675381 0.25336453 0.06734444 0.16294391 0.2800943
-0.012700252 0.081266455 -0.18874808 0.122491315 -0.110840246 -0.11812591 -0.19435428 -0.10252681
0.1520625 -0.07197307 0.07456762 -0.060921896 -0.12746215 0.032347497 -0.07591655 -0.0050447565
-0.1346835 0.09630855 0.020911993 -0.07543904 -0.08796813 0.083101474 -0.13287431 0.024441266
0.06548255 0.04603963 -0.085387126 -0.06128477 -0.0030763922 -0.07939999 -0.050458703 -0.1096077
-0.16225646 0.059652425 0.020083293 -0.09297605 -0.014450709 -0.09583838 0.04703418 0.049442492
0.03716655 -0.10557327 -0.020264274 -0.20527583 -0.20372148 -0.048011802 -0.19936487 -0.079451926
0.046569984 0.067880124 0.15694585 -0.06657735 0.09233987 0.051275402 0.23960139 -0.03468881
0.0562082 0.054123256 -0.09846256 0.001700837 0.07729909 0.09384877 -0.09599333 -0.0116186505
-0.12198955 -0.17960325 0.08008783 -0.026926568 0.02246323 -0.014834888 -0.24258514 0.02112216
0.1924545 -0.06396959 0.20642646 -0.02694266 -0.041274745 0.07293947 0.064687595 0.08866421
-0.17040198 0.020854726 -0.11858416 -0.053317454 -0.14812705 -0.0039493064 -0.16438831 -0.06156568
0.2319239 0.12322584 0.20942725 0.2229406 0.04038454 0.16786927 -0.10082712 0.022471769
-0.19459459 0.032262716 0.11359378 -0.07038973 -0.0339437 -0.2410309 -0.046078686 -0.038672924
-0.11166693 -0.12696318 0.096902005 -0.027406007 -0.019750172 0.08092393 0.1175698 -0.088529445
-0.017638762 -0.1182942 0.12268822 0.1466067 0.038208116 0.12614428 -0.01736152 0.023922998
0.30949527 0.017511055 -0.23281604 -0.032537777 -0.005487541 -0.012054291 0.034268554 -0.22547251
-0.12923847 -0.14219448 -0.10458538 -0.13066834 0.10320023 -0.052005015 -0.09474777 0.04878857
-0.08244765 -0.067003466 -0.10527037 -0.035163812 0.07911237 0.057826843 -0.06595817 -0.033240676
0.022427004 0.09424082 0.24000944 0.045330033 0.081898525 -0.14626795 0.084810145 0.043470886
-0.077939406 -0.05907114 -0.09009134 -0.0009490987 -0.08793833 0.038081203 0.22256197 -0.01446489
0.07322686 0.06132947 -0.018887307 -0.106601864 0.22089307 0.047519468 -0.090058446 -0.14064527
0.23791665 0.01271108 0.08447737 -0.14041823 -0.124883994 0.11863721 -0.04744017 -0.10987549
0.026360778 0.27330837 -0.09895655 0.059232097 0.07545791 0.27024084 -0.047834348 -0.045250893
0.15814587 -0.009381405 0.020647751 -0.05943918 -0.14816882 0.0109064 0.07176731 0.063978955
-0.045127764 0.04188476 -0.09348229 0.061173923 -0.08666482 0.1350178 -0.14763871 -0.20100835
-0.18528852 0.044283237 -0.017832173 -0.035210498 -0.13644573 0.09096008 0.009478522 0.1411491
0.04313103 0.035043824 0.069224015 -0.17284842 0.14995928 -0.14414097 0.022454504 -0.13998622
00000000: 3ece 02be 3488 e2bd 093e 0abe d28e 6d3e
00000010: 206d febd d492 3d3d 551d e23c f6a7 bbbd
00000020: eb62 f5bd 5d74 45bd efd6 92bd a854 96bd
00000030: 3701 ab3d 0d04 0dbe 6c47 3d3e c026 a63d
00000040: 3991 adbd dbeb b3bc ab81 4c3d 0ff4 893e
00000050: 16a8 f0bd fc66 44bd 6242 e93d 4bdf 003e
00000060: 7d01 51bd b68b 92bd 8b9b 5e3c d2dc 1ebe
00000070: a308 8bbe bbfa bb3d 3e12 ed3d 96ed 313e
00000080: f2e7 933c 669d 9abc 1d83 3ebd f04a fb3c
00000090: ffb8 813e e2eb 893d c5da 263e 8568 8f3e
000000a0: b814 50bc 076f a63d 2d47 41be badc fa3d
000000b0: 3600 e3bd ffeb f1bd cf04 47be 93f9 d1bd
000000c0: 46b6 1b3e 9e66 93bd e9b6 983d 3d89 79bd
000000d0: 7085 02be cf7e 043d 237a 9bbd 7c4e a5bb
000000e0: 79ea 09be 6b3d c53d a14f ab3c c97f 9abd
000000f0: a328 b4bd 1b31 aa3d 3410 08be 0d39 c83c
00000100: b71b 863d 0d94 3c3d 72df aebd bd05 7bbd
00000110: 4c9d 49bb 769c a2bd c9ad 4ebd 007a e0bd
00000120: 8f26 26be 1a56 743d b885 a43c 3a6a bebd
00000130: abc2 6cbc ea46 c4bd eaa6 403d 3684 4a3d
00000140: f43b 183d cc36 d8bd 4301 a6bc d433 52be
00000150: 5d9c 50be 06a8 44bd 4e26 4cbe b1b7 a2bd
00000160: 2bc0 3e3d bc04 8b3d 6ab6 203e b559 88bd
00000170: b01c bd3d 2806 523d 115a 753e db15 0ebd
00000180: 923a 663d 59b0 5d3d bda6 c9bd 9fee de3a
00000190: fc4e 9e3d c933 c03d 2798 c4bd 275c 3ebc
000001a0: a8d5 f9bd eae9 37be 1705 a43d 1b95 dcbc
000001b0: cf04 b83c 080e 73bc 3d68 78be 6108 ad3c
000001c0: cb12 453e 7d02 83bd 7561 533e dab6 dcbc
000001d0: b50f 29bd 4a61 953d ee7a 843d 9595 b53d
000001e0: db7d 2ebe 88d7 aa3c 41dc f2bd 6763 5abd
000001f0: 9eae 17be 2f69 81bb 6955 28be 4b2c 7cbd
00000200: 757d 6d3e d45d fc3d 1974 563e 8a4a 643e
00000210: 426a 253d ece5 2b3e 737e cebd b716 b83c
00000220: ce43 47be e925 043d dba3 e83d 7e28 90bd
00000230: 8d08 0bbd ced0 76be 01bd 3cbd 8067 1ebd
00000240: a2b1 e4bd a302 02be 8f74 c63d 9082 e0bc
00000250: 1dcb a1bc 72bb a53d 6fc8 f03d ed4e b5bd
00000260: 2a7f 90bc 3b44 f2bd f643 fb3d 1120 163e
00000270: 1d80 1c3d f72b 013e bf39 8ebc 2afa c33c
00000280: 2a76 9e3e 5873 8f3c 5467 6ebe 5546 05bd
00000290: d5d0 b3bb 5c7f 45bc 2f5d 0c3d 44e2 66be
000002a0: 1757 04be 6e9b 11be dc30 d6bd eccd 05be
000002b0: a45a d33d 3603 55bd 1e0b c2bd 86d6 473d
000002c0: 50da a8bd 1d39 89bd fe97 d7bd ee07 10bd
000002d0: ab05 a23d d7db 6c3d 1415 87bd 6027 08bd
000002e0: d6b8 b73c 5501 c13d 09c5 753e fcab 393d
000002f0: 6aba a73d 44c7 15be f1b0 ad3d 870e 323d
00000300: b29e 9fbd 94f4 71bd cf81 b8bd f0cc 78ba
00000310: 0319 b4bd 09fb 1b3d 49e7 633e 25fe 6cbc
00000320: f7f7 953d 9c34 7b3d 8eb9 9abc 1452 dabd
00000330: cb31 623e c6a3 423d 9070 b8bd 5005 10be
00000340: 6ca0 733e 2242 503c 7902 ad3d ccc9 0fbe
00000350: 2ec3 ffbd 11f8 f23d a050 42bd 6706 e1bd
00000360: 8ff2 d73c 13ef 8b3e bba9 cabd 5b9d 723d
00000370: ad89 9a3d 025d 8a3e f3ed 43bd 0059 39bd
00000380: fef0 213e 77b4 19bc 7925 a93c 7f76 73bd
00000390: 91b9 17be c2b0 323c bdfa 923d 6607 833d
000003a0: e4d7 38bd 5b8f 2b3d a573 bfbd 8291 7a3d
000003b0: 537d b1bd 1b42 0a3e 9a2e 17be 22d5 4dbe
000003c0: 46bc 3dbe 5762 353d c714 92bc e238 10bd
000003d0: 6eb8 0bbe 4749 ba3d ce4b 1b3c 6489 103e
000003e0: 2aaa 303d 1d8a 0f3d 52c5 8d3d 2dff 30be
000003f0: ed8e 193e b199 13be 82f2 b73c 8c58 0fbe

fc5.bias f4 [10]
-0.029395731 0.10504837 -0.047940258 0.08996663 -0.08676596 0.054121938 0.002698592 -0.056315497
-0.114921704 0.01633134
00000000: 51cf f0bc 9a23 d73d 015d 44bd 6d40 b83d
00000010: 5ab2 b1bd f7ae 5d3d dcda 303b 14ab 66bd
00000020: 125c ebbd 4dc9 853c
